…
>\n","        <script>\n","          requirejs.config({\n","            paths: {\n","              base: '/static/base',\n","              plotly: 'https://cdn.plot.ly/plotly-1.5.1.min.js?noext',\n","            },\n","          });\n","        </script>\n","        "]},"metadata":{}},{"output_type":"stream","name":"stdout","text":["Model: \"sequential\"\n","_________________________________________________________________\n"," Layer (type)                Output Shape              Param #   \n","=================================================================\n"," reshape (Reshape)           (None, 168, 52, 1)        0         \n","                                                                 \n"," conv2d (Conv2D)             (None, 168, 52, 16)       160       \n","                                                                 \n"," max_pooling2d (MaxPooling2D  (None, 84, 26, 16)       0         \n"," )                                                               \n","                                                                 \n"," conv2d_1 (Conv2D)           (None, 84, 26, 8)         1160      \n","                                                                 \n"," max_pooling2d_1 (MaxPooling  (None, 42, 13, 8)        0         \n"," 2D)                                                             \n","                                                                 \n"," flatten (Flatten)           (None, 4368)              0         \n","                                                                 \n"," dense (Dense)               (None, 4368)              19083792  \n","                                                                 \n"," reshape_1 (Reshape)         (None, 42, 13, 8)         0         \n","                                                                 \n"," conv2d_2 (Conv2D)           (None, 42, 13, 8)         584       \n","                                                                 \n"," up_sampling2d (UpSampling2D  (None, 84, 26, 8)        0         \n"," )                                                               \n","                                                                 \n"," conv2d_3 (Conv2D)           (None, 84, 26, 16)        1168      \n","                                                                 \n"," up_sampling2d_1 (UpSampling  (None, 168, 52, 16)      0         \n"," 2D)                                                             \n","                                                                 \n"," conv2d_4 (Conv2D)           (None, 168, 52, 1)        145       \n","                                                                 \n"," flatten_1 (Flatten)         (None, 8736)              0         \n","                                                                 \n"," reshape_2 (Reshape)         (None, 8736, 1)           0         \n","                                                                 \n","=================================================================\n","Total params: 19,087,009\n","Trainable params: 19,087,009\n","Non-trainable params: 0\n","_________________________________________________________________\n"]},{"output_type":"display_data","data":{"text/plain":["<Figure size 432x288 with 1 Axes
…
